ppo/ppo_model.pt (torch, 280792 bytes, 7 tensors)

model.0.weight f4 [256, 8]
0.32338846 -0.31577408 -0.6332418 -0.23256251 -0.10394126 0.135243 0.19141579 -0.41865107
-0.23268862 0.03253292 -0.5032143 -0.49306744 -0.32605076 -0.11843033 0.0044586216 0.17009425
0.948715 -0.55737436 0.5228671 -0.077833034 -0.38851935 0.018662062 -0.044083156 0.2135581
0.028063359 0.42781603 1.2712567 0.1237728 0.25589752 -0.19702718 0.06355764 -0.19153427
-0.3711013 -0.0886156 -0.26663303 -0.06872888 -0.059589665 0.35647893 -0.10499999 -0.47816998
0.33572376 -1.7145312 -0.5114802 0.1471883 0.073143326 -0.20820414 -0.13423254 0.34012377
0.56060475 -0.41216117 0.10504247 -0.14042719 0.39421657 0.26065546 -0.08124153 0.32575223
0.2475092 0.1562969 -0.1083901 -0.08404768 -0.3847597 -0.69593596 0.08126738 -0.37221158
0.98548514 -0.4398593 0.35139456 -0.25296468 0.04213593 0.056397147 -0.0048535923 0.0075224084
0.08327763 0.21080045 -0.99138016 -0.10852257 0.756578 -0.34686652 -0.09418858 -0.17447452
-0.45642626 -1.3346677 0.4098958 -0.506819 -0.62077045 -0.03389866 0.1769833 0.05791516
0.44628918 0.1180104 -0.08644194 -0.07034741 0.15228902 0.86533254 -0.08768486 0.12261242
-0.6788192 0.13501123 0.27316347 -0.2641801 -0.058303658 0.5769873 0.19375391 0.29168534
0.6895919 -2.3286464 -0.018320335 -0.1880857 0.007553677 -0.109157555 0.008811785 0.15738878
0.16913068 0.18663378 0.17267054 -0.11326345 0.33697924 0.58798224 0.28565675 -0.33332685
0.9228987 0.042866826 0.45349595 0.112954944 -0.092228085 0.036849484 0.027959373 -0.05979907
-0.13839021 0.21370469 -0.22704004 -0.20895395 0.6975373 0.0692469 0.19959849 -0.16479644
-0.15683721 -0.253766 0.1674788 0.028623074 0.45075667 -0.15643269 0.04867254 -0.1622049
0.23909314 -0.16210894 0.03892303 -0.82278055 -0.56987673 0.20024367 -0.10272011 0.11859964
0.93291175 -0.082118094 0.3562079 -0.17742321 -0.38421613 -0.019802082 -0.1338266 -0.012118458
-1.1587156 0.010209344 -0.5139069 -0.008579897 0.71327394 -0.151476 -0.019243399 -0.030521069
0.005059926 0.32583037 -0.0027550217 0.36905235 1.148144 -0.6764308 -0.11389404 -0.1526466
0.1818418 -0.345877 -0.20886211 -0.39988798 0.5177681 -0.6163262 0.001789783 0.14817947
0.54485005 0.1362393 0.32826447 1.6193588 -0.069039896 0.06979675 0.1154346 -0.31549773
0.4093216 0.262459 -0.09163868 -0.109372325 0.79184604 -0.18548033 -0.3163062 -0.16860138
0.068360485 0.31644282 0.6377628 -0.0042568366 -0.58217216 -0.72331184 -0.29765722 0.03963564
0.1636783 0.5566491 0.01148514 -0.57021815 -0.67866075 0.04151266 -0.20505825 0.30343866
0.1286603 0.43275723 -0.45315173 -0.41086772 -0.5251393 0.17320563 -0.4120237 0.15895878
-1.0134342 -0.021381678 -0.4414448 0.05979602 0.020838203 -0.050921652 -0.090363845 -0.089528136
0.708076 -0.61618406 -0.02260207 -0.6251657 0.6285778 -0.06347256 -0.41058055 0.037974935
-0.0063479133 0.005188175 0.72147447 -0.6927505 -0.08321206 -0.2144971 -0.30301428 0.29551286
-0.16365047 0.074312106 -0.013649045 0.11538164 -1.3338991 -0.06474232 -0.022442847 0.23188229
00000000: 2c93 a53e 24ad a1be 221c 22bf de24 6ebe
00000010: 28df d4bd 247d 0a3e 8002 443e 6f59 d6be
00000020: ed45 6ebe 3d41 053d a7d2 00bf 5673 fcbe
00000030: 20f0 a6be 9a8b f2bd a119 923b 302d 2e3e
00000040: fcde 723f 16b0 0ebf 9eda 053f ed66 9fbd
00000050: 02ec c6be 2ee1 983c 8a90 34bd f9ae 5a3e
00000060: 21e5 e53c b40a db3e 8ab8 a23f 987c fd3d
00000070: 0005 833e 7ec1 49be 822a 823d 8f21 44be
00000080: fd00 bebe 187c b5bd 2084 88be bac1 8cbd
00000090: 4b14 74bd 6884 b63e 3c0a d7bd b2d2 f4be
000000a0: fce3 ab3e c275 dbbf 5ef0 02bf 88b8 163e
000000b0: 2bcc 953d 7733 55be 4174 09be b424 ae3e
000000c0: cb83 0f3f ca06 d3be 8220 d73d 25cc 0fbe
000000d0: c1d6 c93e a274 853e f661 a6bd ffc8 a63e
000000e0: 0d73 7d3e 4b0c 203e a1fb ddbd 3121 acbd
000000f0: 39ff c4be dc28 32bf 836f a63d 8492 bebe
00000100: c148 7c3f 3d35 e1be fde9 b33e 9684 81be
00000110: ba96 2c3d b200 673d e20a 9fbb 897e f63b
00000120: 768d aa3d 13dc 573e 17cb 7dbf 1541 debd
00000130: 19af 413f 7d98 b1be f1e5 c0bd 73a9 32be
00000140: b4b0 e9be 64d6 aabf dddd d13e e4be 01bf
00000150: d0ea 1ebf 52d9 0abd 1c3b 353e 7238 6d3d
00000160: 0480 e43e 70af f13d 7908 b1bd 4e12 90bd
00000170: a7f1 1b3e 6f86 5d3f 1f94 b3bd 381c fb3d
00000180: 18c7 2dbf 6240 0a3e 15dc 8b3e 9d42 87be
00000190: d1cf 6ebd 71b5 133f 6d67 463e c857 953e
000001a0: 1889 303f 8b08 15c0 8714 96bc 8a99 40be
000001b0: d684 f73b ff8d dfbd 4e5f 103c 862a 213e
000001c0: 9830 2d3e ed1c 3f3e 8cd0 303e abf6 e7bd
000001d0: 8b88 ac3e 0186 163f 9a41 923e d1a9 aabe
000001e0: 1743 6c3f 2095 2f3d 9f30 e83e ec54 e73d
000001f0: 14e2 bcbd 7cef 163d 0e0b e53c dfef 74bd
00000200: 2ab6 0dbe 67d5 5a3e 2f7d 68be 06f8 55be
00000210: ce91 323f 52d1 8d3d 8c63 4c3e 66c0 28be
00000220: ef99 20be 9eed 81be 907f 2b3e f07a ea3c
00000230: 94c9 e63e e42f 20be db5c 473d 0b19 26be
00000240: d5d4 743e e3ff 25be c16d 1f3d bfa1 52bf
00000250: 71e3 11bf ad0c 4d3e ec5e d2bd 5ee4 f23d
00000260: 4ed3 6e3f 882d a8bd e260 b63e 6eae 35be
00000270: fab7 c4be fa37 a2bc d709 09be 7f8c 46bc
00000280: cb50 94bf 1845 273c 678f 03bf b292 0cbc
00000290: 1f99 363f 861c 1bbe 55a4 9dbc 5207 fabc
000002a0: bccd a53b 3dd3 a63e 988d 34bb 6ef4 bc3e
000002b0: 62f6 923f 922a 2dbf 4741 e9bd 644f 1cbe
000002c0: bd34 3a3e ca16 b1be f3df 55be 1ebe ccbe
000002d0: 738c 043f 8ec7 1dbf 2797 ea3a 5cbc 173e
000002e0: 4b7b 0b3f 5182 0b3e 4812 a83e 2647 cf3f
000002f0: ca64 8dbd 99f1 8e3d fa68 ec3d eb88 a1be
00000300: 9a92 d13e 0761 863e 0fad bbbd 99fe dfbd
00000310: 6cb6 4a3f 8eee 3dbe e3f2 a1be d7a5 2cbe
00000320: 9500 8c3d cb04 a23e 6c44 233f ef7c 8bbb
00000330: 3c09 15bf f72a 39bf 8766 98be fb58 223d
00000340: 499b 273e 8e80 0e3f 2b2c 3c3c d1f9 11bf
00000350: b6bc 2dbf 2e09 2a3d cafa 51be 505c 9b3e
00000360: 87bf 033e 5b92 dd3e 8103 e8be 415d d2be
00000370: 876f 06bf d15c 313e c5f4 d2be 17c6 223e
00000380: 36b8 81bf a128 afbc 0e05 e2be acec 743d
00000390: e1b4 aa3c 3993 50bd ae10 b9bd 875a b7bd
000003a0: 7844 353f 3dbe 1dbf fa27 b9bc dc0a 20bf
000003b0: 7aea 203f e7fd 81bd 9d37 d2be 9b8b 1b3d
000003c0: 2802 d0bb 9101 aa3b 8db2 383f 1958 31bf
000003d0: 166b aabd 21a5 5bbe b024 9bbe 764d 973e
000003e0: fd93 27be f230 983d 3ea0 5fbc 364d ec3d
000003f0: 35bd aabf 9f97 84bd 10da b7bc 8d72 6d3e

model.0.bias f4 [256]
0.4436074 0.0051177833 -0.071218476 -0.007344012 0.37113658 -0.07095223 -0.23883747 0.28910887
-0.13443975 0.1243323 -0.247829 -0.25690287 -0.40813056 -0.09645837 0.2762751 -0.07352442
0.02300427 0.53364944 0.24751988 0.03409256 0.33105752 0.27145395 -0.07217869 -0.15984277
-0.22649139 0.26069498 -0.09545297 -0.13009907 -0.034732997 -0.28910443 0.020054601 0.029847302
-0.3415182 -0.14407624 -0.071763135 -0.12820745 -0.0691941 0.24652883 -0.19275653 -0.10896988
-0.13608769 -0.34311444 -0.19995843 -0.42725843 -0.29387718 -0.34713522 0.12783195 -0.0673177
-0.510027 0.27670816 0.10006744 -0.038972706 -0.0074311453 0.19560315 0.36571407 -0.1177075
0.15797436 -0.16478096 -0.085496746 -0.3651701 -0.22259775 -0.044684652 -0.20350425 0.28352398
0.007754787 -0.046571683 0.1602138 0.006315516 -0.25909814 0.41764417 -0.016716838 -0.28909776
0.053487677 0.00060063065 -0.04627594 0.08238996 0.23646942 -0.06724081 -0.12656921 0.05549071
0.2593418 -0.14412029 -0.00984354 -0.21449992 -0.16516323 0.0570629 0.05384121 0.120705426
0.37533486 0.0030689142 -0.24659124 -0.19111058 -0.017500918 -0.327864 0.5006914 -0.10116107
0.050010923 -0.25296384 0.13394925 0.07735157 0.109178044 0.25401625 0.24503778 0.2499808
0.16630563 -0.11049756 -0.30887356 0.3354489 -0.15112418 0.080545336 -0.37377098 0.063932754
-0.23587923 -0.07538583 -0.108392745 0.48128152 -0.07281779 -0.087578945 -0.08109714 0.2993326
0.3550777 0.063134685 -0.3742051 -0.06536575 -0.043406624 -0.4316311 0.27441612 -0.2733005
-0.13855474 0.015847677 -0.04484368 0.14984399 -0.028281426 -0.065209925 -0.07794855 0.003743007
0.023449043 0.22451821 -0.061634205 0.00828091 0.015379665 0.45275998 -0.12156278 -0.05974283
0.24535921 0.13907798 -0.079048306 0.17408812 -0.043379392 0.23874202 0.004148933 -0.15978836
-0.12642567 0.07505123 -0.086740844 0.36062077 -0.02590547 0.2555744 -0.22443552 -0.14208557
0.024880351 -0.25474778 -0.013324514 0.1985989 -0.082462214 0.5512736 0.086151086 -0.16960454
0.014232088 0.037987854 0.3402162 -0.11849632 0.41529173 -0.10642388 0.22423188 0.09944445
0.07630953 -0.1472104 0.35821182 0.11702251 0.32954207 0.40043226 0.12504387 0.41603583
-0.4039032 0.11063943 -0.18704931 0.3372976 -0.015283398 0.28686774 -0.0038679761 -0.18384683
0.42665994 -0.00018397684 0.165007 -0.017259158 0.0974424 0.39119887 0.3033024 0.19249573
-0.36525255 0.29199567 -0.44950345 -0.07378057 0.43238717 0.004518103 0.31370848 -0.044249244
-0.12555228 0.4361064 -0.23088385 -0.12970948 0.14025326 -0.06400085 -0.16692506 -0.37161332
0.30378246 0.36370537 -0.05332059 -0.23907475 0.16012973 -0.33514458 0.016694602 0.30131617
0.13692392 0.04792522 0.2561526 -0.011190282 -0.02316589 -0.15610346 -0.21622807 0.35477233
-0.25715566 -0.3036779 0.5390566 -0.09785206 -0.058900457 0.075252764 0.36461812 -0.3397433
-0.16506335 -0.2302194 0.18625961 -0.45142567 -0.062295116 -0.03439414 -0.0027602252 0.035895336
-0.098369524 -0.30540252 -0.3494452 0.24267294 -0.13330965 0.16817404 -0.071049646 0.21625358
00000000: 8220 e33e 14b3 a73b feda 91bd 0aa6 f0bb
00000010: 9d05 be3e 674f 91bd cf91 74be 1406 943e
00000020: 93aa 09be efa1 fe3d e3c6 7dbe c688 83be
00000030: 7df6 d0be f78b c5bd ee73 8d3e f993 96bd
00000040: 7373 bc3c 409d 083f da75 7d3e a4a4 0b3d
00000050: 5f80 a93e 03fc 8a3e 6cd2 93bd d3ad 23be
00000060: 5ced 67be d079 853e d97c c3bd b138 05be
00000070: 3044 0ebd 7f05 94be 8c49 a43c 5482 f43c
00000080: 79db aebe b988 13be 8df8 92bd d048 03be
00000090: a3b5 8dbd 0e72 7c3e f861 45be 9a2b dfbd
000000a0: 925a 0bbe b2ac afbe e7c1 4cbe 9ec1 dabe
000000b0: 1277 96be b5bb b1be 61e6 023e dddd 89bd
000000c0: 2191 02bf b1ac 8d3e 28f0 cc3d d8a1 1fbd
000000d0: f780 f3bb 314c 483e e03e bb3e a110 f1bd
000000e0: 08c4 213e 57bc 28be eb18 afbd 93f7 babe
000000f0: aaf0 63be 4107 37bd 6b63 50be 0e2a 913e
00000100: de1b fe3b f3c1 3ebd 160f 243e 63f2 ce3b
00000110: 83a8 84be 75d5 d53e c0f1 88bc 9f04 94be
00000120: e515 5b3d a473 1d3a d78b 3dbd 11bc a83d
00000130: 0a25 723e 8db5 89bd 5c9b 01be 3a4a 633d
00000140: 73c8 843e 4594 13be cd46 21bc dea5 5bbe
00000150: 8d20 29be caba 693d 9a88 5c3d 6834 f73d
00000160: e42b c03e d61f 493b 6a82 7cbe 7eb2 43be
00000170: 165e 8fbc cadd a7be 502d 003f 892d cfbd
00000180: 41d8 4c3d 7a84 81be fe29 093e 806a 9e3d
00000190: bd98 df3d 6b0e 823e 2feb 7a3e f8fa 7f3e
000001a0: 064c 2a3e 8b4c e2bd ad24 9ebe f5bf ab3e
000001b0: 4cc0 1abe f4f4 a43d e95e bfbe 2def 823d
000001c0: 538a 71be e363 9abd 04fd ddbd 886a f63e
000001d0: 7e21 95bd 975c b3bd 4216 a6bd 1f42 993e
000001e0: bfcc b53e c24c 813d d097 bfbe 7ade 85bd
000001f0: 25cb 31bd c0fe dcbe 4580 8c3e 0bee 8bbe
00000200: 4be1 0dbe fdd2 813c 02ae 37bd b470 193e
00000210: 73ae e7bc c88c 85bd 7da3 9fbd 3d4d 753b
00000220: 3518 c03c 1ae8 653e 2674 7cbd a7ac 073c
00000230: fefa 7b3c 28d0 e73e e8f5 f8bd e6b4 74bd
00000240: 723f 7b3e 756a 0e3e 14e4 a1bd 2844 323e
00000250: 97ae 31bd ca78 743e c6f3 873b 8f9f 23be
00000260: bb75 01be 76b4 993d 2fa5 b1bd 49a3 b83e
00000270: b537 d4bc a6da 823e 6dd2 65be e17e 11be
00000280: e1d1 cb3c 4d6e 82be 104f 5abc 835d 4b3e
00000290: f3e1 a8bd 4420 0d3f fb6f b03d d0ac 2dbe
000002a0: b42d 693c 2799 1b3d d130 ae3e 33ae f2bd
000002b0: 1ea1 d43e c3f4 d9bd 0b9d 653e 88a9 cb3d
000002c0: 2c48 9c3d 53be 16be 8a67 b73e 7fa9 ef3d
000002d0: bdb9 a83e 7505 cd3e 800b 003e a602 d53e
000002e0: 66cc cebe ed96 e23d db89 3fbe 45b2 ac3e
000002f0: 3867 7abc 54e0 923e df7d 7dbb 5842 3cbe
00000300: 2c73 da3e e8e9 40b9 98f7 283e 1463 8dbc
00000310: e28f c73d 384b c83e 744a 9b3e 9a1d 453e
00000320: 6202 bbbe 7580 953e 5125 e6be 441a 97bd
00000330: da61 dd3e 980c 943b 669e a03e b23e 35bd
00000340: c790 00be 5749 df3e d16c 6cbe 90d2 04be
00000350: 8d9e 0f3e e112 83bd 67ee 2abe 1a44 bebe
00000360: 6089 9b3e 9737 ba3e b166 5abd 03d0 74be
00000370: 0cf9 233e 1298 abbe 1ec3 883c 1d46 9a3e
00000380: c935 0c3e 3c4d 443d 6f26 833e 7257 37bc
00000390: 64c6 bdbc 96d9 1fbe e46a 5dbe b8a4 b53e
000003a0: e8a9 83be ab7b 9bbe 9dff 093f a966 c8bd
000003b0: 9b41 71bd 1f1e 9a3d 3aaf ba3e d5f2 adbe
000003c0: 5e06 29be a2be 6bbe d7ba 3e3e 4421 e7be
000003d0: 2a29 7fbd dfe0 0cbd e5e4 34bb fd06 133d
000003e0: f675 c9bd b85d 9cbe 7bea b2be 417f 783e
000003f0: 5382 08be d135 2c3e 7a82 91bd 9471 5d3e

model.2.weight f4 [256, 256]
-0.0960816 0.05180135 0.11840335 -0.39017117 -0.024691664 -0.0014806207 0.22176318 -0.039839763
0.42813808 -0.6206153 0.4356129 -0.34355804 0.16680482 0.17275651 -0.019593384 -0.06149821
-0.33637634 -0.13866255 0.17920229 0.34401524 -0.41374412 -0.6165399 -0.294233 -0.2708783
-0.19292459 -0.14054987 -0.13077947 -0.02725167 0.33177054 0.9211083 0.09475659 0.028196579
-0.050546605 -0.41308275 -0.10126724 -0.0952512 0.46787587 -0.2608392 -0.015207823 -0.15187189
-0.53162205 -0.20844893 0.14128187 -0.2559805 -0.40172544 -0.33799583 -1.1333311 -0.6129189
-0.22132722 0.12677854 0.2872318 0.22035132 -0.50316525 -0.22183958 0.06418268 0.41532943
-0.07301214 0.83202046 -0.703716 -0.41524255 -0.29988447 -0.2783339 -0.014144601 -0.12394584
0.24283591 -0.30198497 -0.48210192 -0.5395029 0.8789807 -0.23002467 -0.06304544 -0.10581822
-0.8909745 -0.19262198 -0.055698838 0.15771914 -0.079054266 0.0711482 -0.26868853 -0.05351019
-0.23141201 0.008898623 -0.6703253 0.17331144 0.20094834 -0.04525192 -0.057403035 0.09039879
-0.030838544 -0.23591578 -0.041722924 0.34328642 -0.5177103 0.24422169 -0.031336308 -0.081379406
-0.7969962 -0.20992036 0.15623714 -0.2807136 0.27232093 0.15785296 0.22074945 -0.1741044
-0.061316125 -0.2918658 0.18373482 -0.12661213 -0.32788044 -0.105689764 1.085961 0.2624866
0.10938038 0.44202015 0.19766606 0.007956744 -0.3457324 -0.4459446 0.077718325 -0.2263027
-0.039164092 -0.2701224 -0.30758893 0.056992255 -0.14630702 0.13615522 -0.24599734 0.3890115
0.09202762 -0.041371357 -0.13073759 -0.22377312 -0.45697978 -0.5370308 0.050730776 -0.10983662
-0.2409748 0.03802003 -1.0121974 0.66546273 -0.16538937 0.055280622 -0.66972333 -0.102898054
-0.39903098 -0.15103649 -0.25695303 -0.39825848 -0.053759478 -0.019871416 0.0049542086 0.5484926
-0.82459056 0.20816009 -0.80827427 -0.08296797 0.41377878 0.095795415 -0.41676208 0.3674354
-0.21052592 -0.61927587 -0.90494263 -0.67412513 -0.091681935 0.032472547 -0.13019009 -0.05737452
0.10655252 0.33546066 0.036656726 -0.49493736 -0.0335469 0.42466682 0.00021949486 0.008724726
0.37632057 0.39646566 -0.00804203 0.15461989 0.07988298 -0.035394013 -0.020596195 -0.03277249
0.16354878 0.047576655 0.1740316 0.01708452 -0.03890536 -0.12915269 0.12573092 0.36549643
-0.02529937 0.024605135 -0.15048331 0.21647045 -0.02878653 -0.02115672 0.13191912 -0.57158476
0.2049451 -0.231698 -0.25334865 0.23172095 -0.0339321 0.36043465 0.10805431 -0.2605088
0.26788875 0.04463934 0.24246225 -0.030126486 -0.42192456 0.08616995 -0.30145696 -0.5531304
-0.19284756 -0.05622148 -0.13581702 0.21172093 -0.079803914 -0.37180537 -0.10482055 -0.2118588
0.18056512 -0.38777173 0.17300297 -0.41622943 0.0069395355 0.23699133 -0.16946974 0.029099766
0.141617 -0.47109377 -0.19987297 0.042806756 0.020334968 0.034403358 -0.043574966 0.6150525
0.2958473 0.6337425 -0.6373335 -0.5133665 -0.17076622 0.08481583 -0.9949473 0.12612504
0.13889363 -0.055358697 -0.43111178 0.012075762 0.259523 -0.21801087 0.015727125 -0.20413442
00000000: 6ec6 c4bd a72d 543d 757d f23d 84c4 c7be
00000010: 2c46 cabc 6311 c2ba e315 633e 052f 23bd
00000020: ea34 db3e a5e0 1ebf a708 df3e d7e6 afbe
00000030: e2ce 2a3e 15e7 303e 4e82 a0bc 8ce5 7bbd
00000040: 8539 acbe 8efd 0dbe ce80 373e c422 b03e
00000050: 45d6 d3be 8fd5 1dbf b5a5 96be 8fb0 8abe
00000060: 068e 45be 4eec 0fbe 0eeb 05be e53e dfbc
00000070: d4dd a93e c1cd 6b3f be0f c23d 83fc e63c
00000080: f509 4fbd 957f d3be 3365 cfbd 1013 c3bd
00000090: 6d8d ef3e b78c 85be 3c2a 79bc 4e84 1bbe
000000a0: 6218 08bf a373 55be 32ac 103e e00f 83be
000000b0: f5ae cdbe ca0d adbe fe10 91bf 41e8 1cbf
000000c0: 9aa3 62be 3cd2 013e 0c10 933e c7a3 613e
000000d0: 70cf 00bf ea29 63be 3572 833d 0fa6 d43e
000000e0: 6487 95bd 4bff 543f bb26 34bf ac9a d4be
000000f0: 758a 99be c881 8ebe c2be 67bc 51d7 fdbd
00000100: faa9 783e c69d 9abe 10d6 f6be dd1c 0abf
00000110: e104 613f 968b 6bbe f81d 81bd 39b7 d8bd
00000120: e816 64bf b23e 45be 7724 64bd 2081 213e
00000130: 34e7 a1bd 26b6 913d 8b91 89be 802d 5bbd
00000140: 45f7 6cbe 88cb 113c 709a 2bbf 8e78 313e
00000150: 67c5 4d3e 145a 39bd 721f 6bbd 0023 b93d
00000160: 1da1 fcbc e893 71be a8e5 2abd 3dc3 af3e
00000170: aa88 04bf 4015 7a3e 805a 00bd 3faa a6bd
00000180: f107 4cbf 5df5 56be a1fc 1f3e b1b9 8fbe
00000190: a66d 8b3e 35a4 213e 250c 623e 6d48 32be
000001a0: 9e26 7bbd 6f6f 95be fb24 3c3e 9ca6 01be
000001b0: f2df a7be e073 d8bd c500 8b3f a564 863e
000001c0: d202 e03d 7750 e23e f968 4a3e 015d 023c
000001d0: d603 b1be da52 e4be c92a 9f3d e5bb 67be
000001e0: 876a 20bd 7c4d 8abe 4c7c 9dbe b670 693d
000001f0: 82d1 15be 466c 0b3e bae6 7bbe 842c c73e
00000200: fa78 bc3d 0375 29bd 13e0 05be c824 65be
00000210: 41f9 e9be da7a 09bf 13cb 4f3d 06f2 e0bd
00000220: 19c2 76be e4ba 1b3d af8f 81bf c45b 2a3f
00000230: d55b 29be ef6d 623d fd72 2bbf 37bc d2bd
00000240: ca4d ccbe 4fa9 1abe 598f 83be 89e8 cbbe
00000250: e632 5cbd 61c9 a2bc ea56 a23b 036a 0c3f
00000260: 5e18 53bf eb27 553e 10eb 4ebf 1ceb a9bd
00000270: d0da d33e 6330 c43d d761 d5be 7e20 bc3e
00000280: 1b94 57be dd88 1ebf 52aa 67bf 7793 2cbf
00000290: bdc3 bbbd ef01 053d 8d50 05be 8b01 6bbd
000002a0: 3538 da3d 80c1 ab3e 5d25 163d 6e68 fdbe
000002b0: 7968 09bd ee6d d93e 3428 6639 27f2 0e3c
000002c0: 17ad c03e 8cfd ca3e b8c2 03bc ad54 1e3e
000002d0: b099 a33d 50f9 10bd 5ab9 a8bc 723c 06bd
000002e0: 5579 273e bddf 423d 5735 323e d6f4 8b3c
000002f0: 3a5b 1fbd 9a40 04be 9bbf 003e 5922 bb3e
00000300: a040 cfbc b590 c93c 4c18 1abe 6eaa 5d3e
00000310: bbd1 ebbc dc50 adbc ce15 073e 6153 12bf
00000320: 21dd 513e 3e42 6dbe eab6 81be 4248 6d3e
00000330: 63fc 0abd e48a b83e 944b dd3d 6961 85be
00000340: b728 893e bed7 363d 0648 783e d2cb f6bc
00000350: 7f06 d8be df79 b03d 9158 9abe f499 0dbf
00000360: d579 45be 7f48 66bd 9e13 0bbe 5fcd 583e
00000370: 3c70 a3bd 465d bebe 28ac d6bd 83f1 58be
00000380: 10e6 383e 048a c6be b127 313e 061c d5be
00000390: 0b65 e33b dbad 723e 7a89 2dbe a262 ee3c
000003a0: 0c04 113e 3433 f1be 80ab 4cbe 2356 2f3d
000003b0: 8595 a63c 89ea 0c3d aa7b 32bd 1574 1d3f
000003c0: 4c79 973e f33c 223f 4a28 23bf fd6b 03bf
000003d0: 57dd 2ebe ecb3 ad3d deb4 7ebf ec26 013e
000003e0: 223a 0e3e cdbf 62bd afba dcbe 6bd9 453c
000003f0: 33e0 843e 3e3e 5fbe 2cd6 803c 9d08 51be

model.2.bias f4 [256]
-0.14865753 -0.024691893 -0.053394083 0.025295341 0.084039345 0.07292167 0.07206427 0.16823944
0.19107458 0.068874784 -0.003243205 0.20931673 -0.033334665 -0.046451457 -0.009585833 -0.024269344
-0.15178074 0.052173182 0.1109799 0.090108804 0.05306138 0.05401386 0.23978266 -0.10152122
0.14818713 -0.035262633 0.065528445 -0.006852008 -0.012987878 0.17280528 0.053592525 -0.066731885
0.007066182 0.14873047 -0.016008254 -0.02965839 -0.12683693 -0.014304641 -0.02236842 -0.09658863
-0.09840736 0.05139273 -0.120064184 -0.114740476 0.2056566 -0.04777639 0.11576029 0.13760588
-0.020794483 0.1753092 -0.055722754 -0.05407462 0.022973135 0.19314556 0.22087738 0.027760848
-0.047568776 0.037483305 0.22246818 0.042680655 -0.017986003 0.121544965 0.10006157 -0.06673547
0.07903495 -0.014567375 -0.022214387 0.16692427 0.17894942 0.04659058 -0.053009797 -0.025831845
-0.012335874 -0.06468542 -0.09277408 0.17305206 0.18836124 0.12452975 0.3218211 -0.1094071
0.07747822 0.2332826 0.0987186 0.21976744 0.22704135 0.099107265 -0.046521872 0.003446036
0.033915345 0.11395223 -0.09481844 0.23638763 -0.015085708 0.0482311 -0.05289971 -0.0021961173
-0.010390535 0.22156219 0.23075178 0.24868426 -0.017316468 0.017041087 -0.11404719 0.06936152
0.15381633 -0.07318193 -0.20394878 0.24122792 0.1916906 0.25131106 0.20443293 0.08663622
0.03809219 -0.03403813 -0.023053737 -0.10515841 -0.06015869 0.29431143 0.21654823 -0.021034228
0.0027414036 -0.07518369 -0.08359198 -0.06222855 -0.064196065 -0.14686018 -0.07834065 0.19586496
-0.010548813 0.07988809 -0.008010136 0.06590396 -0.032905124 0.065159485 0.16539001 0.2944631
0.27506676 0.17811853 -0.024728624 0.013876041 -0.034132 0.15713839 -0.035393044 0.08602696
0.19033411 0.06814372 0.22122075 -0.14007257 0.15695302 -0.061787184 0.05775093 0.2445981
0.26334628 0.30524936 -0.050173555 -0.024436964 -0.035389762 0.026073795 -0.1378995 0.10156598
-0.092946075 0.04042432 -0.05378442 0.24283643 -0.034192238 -0.06103886 0.20311326 -0.11943501
-0.08849165 0.07833862 -0.06121583 0.2351306 -0.0016204166 -0.014573865 0.17823385 0.021283934
0.12467945 0.14540806 0.036902905 -0.028661044 0.014121244 0.0020977808 0.21719223 -0.0139910355
0.015916225 -0.08374492 0.18128242 -0.08544709 -0.069173165 -0.0347143 -0.04599503 0.29450858
-0.16356662 -0.058643505 -0.014182363 -0.046735443 0.11700872 0.21920373 -0.038106248 0.013064778
0.24287345 -0.10923166 -0.03440035 0.1621121 0.11586979 0.04206035 0.22335088 -0.02224596
-0.064367086 0.17759818 0.0050888294 0.17694983 0.026662024 0.065773316 -0.07670699 -0.042567592
0.023903945 0.020844955 0.060400866 -0.14525825 -0.032425907 -0.029867424 -0.06628103 -0.096634276
-0.035723235 0.017571568 -0.06453873 -0.11877837 0.0549731 -0.06066535 -0.08220612 0.2682979
-0.003695925 0.22033106 0.012545311 0.17432469 0.17402206 0.09998425 -0.020945597 0.17037132
-0.044644132 0.2034435 -0.03810588 0.2285788 0.11946295 0.07984257 -0.12643792 0.0025303655
0.016372748 -0.06456202 -0.13915023 -0.01881516 0.05206582 -0.06296391 0.023804257 0.19061103
00000000: ae39 18be a746 cabc c1b3 5abd 2d38 cf3c
00000010: d21c ac3d f557 953d 6f96 933d f646 2c3e
00000020: 0ea9 433e 390e 8d3d f38b 54bb 2057 563e
00000030: ee89 08bd e243 3ebd e60d 1dbc 81d0 c6bc
00000040: 696c 1bbe 8cb3 553d 6e49 e33d f78a b83d
00000050: e456 593d a33d 5d3d 9689 753e 5bea cfbd
00000060: 5ebe 173e 8d6f 10bd c733 863d cf86 e0bb
00000070: 1ccb 54bc def3 303e d683 5b3d baaa 88bd
00000080: 6e8b e73b cd4c 183e be23 83bc 27f6 f2bc
00000090: 8ae1 01be 035e 6abc fa3d b7bc 42d0 c5bd
000000a0: cc89 c9bd 2f81 523d 36e4 f5bd 0efd eabd
000000b0: a597 523e 2db1 43bd bb13 ed3d 8ee8 0c3e
000000c0: 3159 aabc 4184 333e 8b3d 64bd 597d 5dbd
000000d0: 2832 bc3c f3c7 453e ae2d 623e b86a e33c
000000e0: 7ad7 42bd 1888 193d b3ce 633e e9d1 2e3d
000000f0: 6257 93bc 91ec f83d 15ed cc3d 9bac 88bd
00000100: 13dd a13d 00ac 6ebc f2fa b5bc 32ee 2a3e
00000110: 843e 373e c4d5 3e3d cd20 59bd 4e9d d3bc
00000120: 681c 4abc ca79 84bd 5600 bebd 8f34 313e
00000130: c5e1 403e 7409 ff3d bcc5 a43e d410 e0bd
00000140: e7ac 9e3d a2e1 6e3e fa2c ca3d b70a 613e
00000150: 877d 683e c0f8 ca3d b88d 3ebd e4d6 613b
00000160: d1ea 0a3d c95f e93d 2c30 c2bd 990f 723e
00000170: 0c2a 77bc f98d 453d 5ead 58bd bcec 0fbb
00000180: 103d 2abc 33e1 623e 324a 6c3e 16a7 7e3e
00000190: 44db 8dbc c099 8b3c 9391 e9bd 6a0d 8e3d
000001a0: 0782 1d3e 68e0 95bd f3d7 50be 7404 773e
000001b0: 8a4a 443e d8ab 803e de56 513e 556e b13d
000001c0: 8e06 1c3d 916b 0bbd 31db bcbc 4b5d d7bd
000001d0: f568 76bd fdaf 963e d2be 5d3e f94f acbc
000001e0: 1fa9 333b e8f9 99bd 4632 abbd 5de3 7ebd
000001f0: 3a79 83bd 8462 16be 1071 a0bd d390 483e
00000200: eed4 2cbc 5e9c a33d f23c 03bc a8f8 863d
00000210: 86c7 06bd 5672 853d 005c 293e dec3 963e
00000220: 8dd5 8c3e b464 363e af93 cabc 5658 633c
00000230: ffcd 0bbd e3e8 203e 4cf8 10bd e72e b03d
00000240: f2e6 423e ef8e 8b3d b187 623e 2f6f 0fbe
00000250: 4bb8 203e 8f14 7dbd 3d8c 6c3d ed77 7a3e
00000260: 53d5 863e a549 9c3e c982 4dbd 0730 c8bc
00000270: dbf4 10bd b698 d53c 8735 0dbe d301 d03d
00000280: 835a bebd f993 253d 0d4d 5cbd 1daa 783e
00000290: 290d 0cbd e203 7abd ecfc 4f3e 589a f4bd
000002a0: 1c3b b5bd 0070 a03d 73bd 7abd 13c6 703e
000002b0: 2964 d4ba 38c7 6ebc ef82 363e a55b ae3c
000002c0: f157 ff3d dae5 143e 8027 173d 91ca eabc
000002d0: ca5c 673c ec7a 093b a467 5e3e a83a 65bc
000002e0: be62 823c 7582 abbd 19a2 393e e2fe aebd
000002f0: a9aa 8dbd 9530 0ebd 4965 3cbd d4c9 963e
00000300: 027e 27be 2c34 70bd 245d 68bc aa6d 3fbd
00000310: 45a2 ef3d f176 603e 4c15 1cbd a70d 563c
00000320: d1b3 783e d9b4 dfbd 62e7 0cbd b700 263e
00000330: 244d ed3d 7947 2c3d 18b6 643e 293d b6bc
00000340: e4d2 83bd 4cdc 353e 32c0 a63b 5632 353e
00000350: 516a da3c 29b4 863d 8e18 9dbd 5b5b 2ebd
00000360: 35d2 c33c 0ac3 aa3c e666 773d 94be 14be
00000370: 07d1 04bd 87ac f4bc 59be 87bd 31e8 c5bd
00000380: 8752 12bd 40f2 8f3c e22c 84bd 1342 f3bd
00000390: 792b 613d 3b7c 78bd af5b a8bd 585e 893e
000003a0: 5537 72bb 779e 613e d98a 4d3c 2c82 323e
000003b0: d732 323e 8bc4 cc3d 1a96 abbc d275 2e3e
000003c0: c4dc 36bd 7e53 503e e914 1cbd 9010 6a3e
000003d0: fea8 f43d 8084 a33d f178 01be 7dd4 253b
000003e0: 2420 863c 1839 84bd 667d 0ebe 4022 9abc
000003f0: f842 553d 39f3 80bd 2501 c33c 8a2f 433e

actor.weight f4 [4, 256]
-0.5170803 -0.4738475 0.069588445 -0.009454118 0.10250272 0.3695212 0.15730944 0.15550216
0.24896885 0.41952637 -0.033485442 0.086408645 0.00471523 0.09914031 -0.13894996 0.10366129
0.050848294 0.011547523 -0.08578009 0.16429147 0.09577557 0.13163766 0.083791204 0.13114521
0.011835508 0.4868841 0.5188492 -0.18950386 0.07881122 0.08185073 -0.20117523 0.1401497
-0.013490481 -0.013511701 0.16433175 0.107400775 0.09317007 -0.14518026 -0.13915686 0.0025480753
0.45270956 -0.055269465 0.27850235 0.12449783 0.018198054 -0.009853337 0.46679056 -0.20296536
-0.073355526 -0.080392525 0.32210922 -0.05187641 -0.2578555 -0.06818449 -0.17739044 0.062022995
0.058860455 -0.06531215 -0.0097884275 0.24966197 -0.021959811 0.16404912 0.12613146 0.022779297
-0.17014998 0.14143446 -0.38281247 0.43930086 -0.06719637 -0.013411317 0.011106338 0.5310633
0.052645683 -0.0053419503 -0.05566562 0.044536773 -0.05909344 0.39417425 0.052814662 -0.06223235
0.31968313 -0.17056787 0.13410921 -0.03590037 -0.00085344224 0.38530412 -0.35416633 -0.052080154
0.021272594 0.14470728 0.035487983 -0.00682139 0.047514144 -0.049927093 0.5775368 -0.14029235
-0.005670805 -0.04737249 0.08316204 -0.025747666 0.13632457 0.03599406 0.011485182 0.35335582
0.0749723 -0.17817931 -0.21464999 0.08290692 -0.21117929 0.11282715 0.05994482 0.12182792
-0.051894292 0.048919335 0.07558211 -0.038658608 -0.07494852 -0.03831433 0.067915104 0.076416336
0.017380193 0.19536038 -0.15251066 -0.04876453 -0.024884267 0.26187593 0.098821916 -0.041155122
0.6629271 0.19801094 0.1890354 0.1492927 0.34595853 0.2134875 0.035994705 -0.028963968
-0.046417065 0.027208462 -0.066195846 -0.050724983 0.01957724 0.03374075 0.09764522 0.13685222
0.0126357805 0.12061266 0.041650638 0.3691716 -0.031656075 0.53432804 -0.25649762 0.008179465
-0.036299095 0.072703056 -0.51008147 -0.11693944 0.04547197 0.01892099 0.27251825 0.088529915
0.31895527 -0.07892736 0.017040946 -0.009115838 -0.113837406 -0.048369057 0.15974627 0.10876244
-0.10229547 0.2570521 0.053666946 -0.051161516 -0.043017484 -0.17747644 -0.042308882 0.21820146
-0.03375135 0.14573419 0.06409811 0.037964035 0.3951765 0.22204988 0.1329957 0.02590235
-0.021048013 0.1367259 0.04959911 0.08213934 -0.18119198 -0.008268078 -0.006098867 -0.058711406
0.21334581 0.028246222 0.35233912 -0.014267124 0.08676839 0.16073617 -0.03842005 0.23273589
-0.05509199 0.2400802 0.011165569 0.081303984 0.23910257 0.018243004 0.007448895 0.04328529
-0.052603208 0.040829916 -0.032546043 0.029023774 0.16578093 0.19624898 0.020575322 -0.028936818
0.015421982 0.04754812 0.07805374 0.40160084 -0.057141796 0.038389973 0.027535249 0.17339219
0.048950493 -0.04363677 -0.06619306 0.058839824 -0.033737812 0.027303914 -0.34716466 0.06779455
-0.14946438 0.099331275 0.2891489 0.11942237 0.10758065 0.26704177 0.05841018 -0.10135559
0.15228197 0.3383752 0.27107194 0.038637947 0.1451167 -0.19322486 0.106574655 0.025208429
0.041277837 0.15800624 -0.19935209 0.44440338 0.33183318 0.14174588 0.12548533 0.015112051
00000000: 605f 04bf 249c f2be 6384 8e3d 72e5 1abc
00000010: f2ec d13d e231 bd3e ba15 213e f53b 1f3e
00000020: b1f1 7e3e 29cc d63e 0828 09bd 04f7 b03d
00000030: 3782 9a3b 130a cb3d e648 0ebe 5f4c d43d
00000040: 4d46 503d d231 3d3c 79ad afbd 063c 283e
00000050: fb25 c43d 06cc 063e b99a ab3d ee4a 063e
00000060: b8e9 413c df48 f93e 4dd3 043f 4d0d 42be
00000070: c767 a13d 5ba1 a73d e100 4ebe 6783 0f3e
00000080: 2e07 5dbc 2e60 5dbc 9546 283e f0f4 db3d
00000090: f3cf be3d 22aa 14be 237f 0ebe 9cfd 263b
000000a0: 8cc9 e73e 3c62 62bd dc97 8e3e b8f8 fe3d
000000b0: 1614 953c e46f 21bc 2cff ee3e 27d6 4fbe
000000c0: 6c3b 96bd d6a4 a4bd 80eb a43e 5c7c 54bd
000000d0: a305 84be 4fa4 8bbd d7a5 35be d30b 7e3d
000000e0: a917 713d 60c2 85bd a45f 20bc 63a7 7f3e
000000f0: 10e5 b3bc 7efc 273e 9b28 013e a69b ba3c
00000100: cc3b 2ebe 32d4 103e ffff c3be 0bec e03e
00000110: 409e 89bd 24bb 5bbc 5cf7 353c c4f3 073f
00000120: 00a3 573d 870b afbb a201 64bd 316c 363d
00000130: f70b 72bd 35d1 c93e 3054 583d 59e7 7ebd
00000140: 82ad a33e 58a9 2ebe ed53 093e 440c 13bd
00000150: 8ab9 5fba 9546 c53e 4a55 b5be 0052 55bd
00000160: dd43 ae3c 252e 143e d95b 113d f785 dfbb
00000170: 319e 423d 5a80 4cbd 74d9 133f cca8 0fbe
00000180: 29d2 b9bb a809 42bd dc50 aa3d c5ec d2bc
00000190: ab98 0b3e 826e 133d 582c 3c3c 0eeb b43e
000001a0: 148b 993d a374 36be 35cd 5bbe 1acb a93d
000001b0: 623f 58be ec11 e73d b388 753d eb80 f93d
000001c0: 1c8f 54bd a45f 483d cbca 9a3d 7d58 1ebd
000001d0: 9c7e 99bd 7def 1cbd 1317 8b3d 2b80 9c3d
000001e0: e860 8e3c 8d0c 483e c12b 1cbe 51bd 47bd
000001f0: 17da cbbc 9a14 863e 2563 ca3d 4692 28bd
00000200: 97b5 293f 61c3 4a3e 7f92 413e 30e0 183e
00000210: 7a21 b13e 789c 5a3e 2f6f 133d d845 edbc
00000220: d21f 3ebd 48e4 de3c b091 87bd 00c5 4fbd
00000230: 7360 a03c be33 0a3d 38fa c73d fd22 0c3e
00000240: 4e06 4f3c c503 f73d dc99 2a3d 0f04 bd3e
00000250: cda9 01bd b9c9 083f a853 83be 2a03 063c
00000260: 5cae 14bd 57e5 943d b394 02bf f27d efbd
00000270: d140 3a3d 3100 9b3c 8387 8b3e 2c4f b53d
00000280: 1b4e a33e aba4 a1bd 7499 8b3c 995a 15bc
00000290: 9623 e9bd a21e 46bd 8794 233e d8be de3d
000002a0: 4a80 d1bd 559c 833e dfd1 5b3d bd8e 51bd
000002b0: 1a33 30bd 62bc 35be 144c 2dbd 3470 5f3e
000002c0: db3e 0abd 583b 153e df45 833d 2d80 1b3d
000002d0: 9354 ca3e 0b61 633e 0630 083e 2a31 d43c
000002e0: e26c acbc e001 0c3e 7028 4b3d ac38 a83d
000002f0: 648a 39be d576 07bc 01d9 c7bb 5f7b 70bd
00000300: 5377 5a3e 9f64 e73c cb65 b43e a8c0 69bc
00000310: a0b3 b13d 0698 243e 585e 1dbd 5152 6e3e
00000320: 23a8 61bd 95d7 753e caef 363c b482 a63d
00000330: 4ed7 743e 5a72 953c dc15 f43b eb4b 313d
00000340: 7676 57bd 453d 273d 004f 05bd 44c3 ed3c
00000350: 7ac2 293e 7ef5 483e 948d a83c e80c edbc
00000360: 7bac 7c3c d1c1 423d a4da 9f3d a09e cd3e
00000370: 840d 6abd ce3e 1d3d 9a91 e13c b98d 313e
00000380: 5080 483d 78bc 32bd 3a90 87bd 0702 713d
00000390: a930 0abd 75ac df3c 91bf b1be ded7 8a3d
000003a0: 310d 19be 326e cb3d 530b 943e b793 f43d
000003b0: 3e53 dc3d b3b9 883e 833f 6f3d 8593 cfbd
000003c0: ceef 1b3e 843f ad3e f1c9 8a3e d342 1e3d
000003d0: 7999 143e bddc 45be d043 da3d e881 ce3c
000003e0: f312 293d 63cc 213e f422 4cbe d788 e33e
000003f0: 0ae6 a93e d525 113e 3a7f 003e 8998 773c

actor.bias f4 [4]
0.03599409 0.02335573 0.0068448815 0.017365923
00000000: 8a6e 133d 8454 bf3c 074b e03b fb42 8e3c

critic.weight f4 [1, 256]
-0.7378561 -0.8181556 0.3340012 -1.0783448 0.6062963 -1.0916888 0.6909766 0.5827631
-0.69275224 -1.2504424 -0.7900169 0.46559727 -0.6221324 -0.83564067 -0.6352663 -1.0623275
-0.6293946 -0.9764276 -0.7697899 -0.83248883 -0.9600919 -0.77963746 0.6957616 -0.89623797
0.5528018 -0.6593943 -0.8587404 -0.82266104 -0.8516177 0.4031756 -0.5503066 -0.9933868
0.03472721 0.47858265 -0.94506437 -0.711985 -0.8282824 -0.6638633 -0.55762273 -0.8735362
-0.9354362 -0.6411709 -0.8485348 -0.76768506 0.6222682 -0.40241504 0.5098262 0.3467004
-0.7668696 0.5603798 -1.043029 -0.38883784 0.05965563 0.5021456 0.6921533 -0.6262996
0.029633086 0.82237333 0.8273774 -0.8609542 0.011564215 -0.9345697 -0.8851487 0.04065362
0.6298837 0.8873336 -0.95743805 0.74475753 0.65444475 -0.6436478 0.031500977 -0.96149755
0.011426734 0.026146835 -0.34042338 0.806038 0.59095687 -0.06432711 0.55773073 -0.7149115
0.47998357 0.7791201 -0.9093529 0.56649697 0.5623445 0.44360846 0.10442926 -0.8951098
-0.39018586 0.38346082 -0.72948515 0.55079234 -0.036342975 0.05574075 -0.69335824 -0.40639165
-0.81793684 0.5366682 0.5020194 0.5535254 -0.5976283 0.023416564 -0.8326264 -0.7081224
0.43542185 -0.5267986 -0.77961856 0.5288554 0.501003 0.66895676 0.5532256 -0.7119957
-1.0971928 0.044082355 -0.63413256 -0.72174716 0.33257437 0.86113596 0.5835139 -0.49267718
0.033647534 -0.83214235 -0.57118577 0.06556304 0.029744511 -0.4863285 -0.27684447 0.56161475
-0.84897125 -0.80260396 -0.51629406 -0.9589251 -0.50579685 -0.65860355 0.6501931 0.48568758
0.7409079 0.63814414 -0.9205093 -0.014372222 -0.040151626 0.5103112 -0.8828219 -0.7700476
0.4904174 0.13080907 0.54298437 -0.6578387 0.4812375 -0.7539185 -0.6861046 0.5277445
0.50206023 0.65475696 -0.904945 -0.78681207 -0.042802803 -0.6256242 -0.773662 -0.91299856
-0.90415794 -0.49609044 0.028753709 0.540891 -0.55542237 -0.6680626 0.46354103 -0.7135757
-0.7089952 0.7405113 0.050160453 0.5830293 -0.91392994 0.9058803 0.65344983 -1.0355598
0.86591005 0.8892938 -1.3117287 -0.051536877 -1.0885423 -0.6982379 0.7191023 -0.057427976
0.019871542 -0.8253486 0.5503565 -0.49148846 -1.2327409 -0.5335772 0.021293206 0.52571225
-0.6763501 0.039561957 -0.66788924 0.008656215 -0.78262615 0.64766484 -0.021053057 -0.88926
0.591275 -1.0463306 -0.0183786 0.5320528 -0.5598532 -0.8498106 0.78078234 -1.0378997
-0.3911287 0.60521334 -0.42138723 0.7963811 -0.75257695 -0.6667457 0.030847108 -0.058354884
-0.87414753 -0.006352992 -0.9095655 -0.7813426 0.045587055 0.064666584 -0.7587071 -0.38527587
-0.733357 -0.82042706 -0.3481082 -0.7214447 -0.7128875 -0.023204284 -0.3622002 0.61055017
-0.6498557 0.6167322 -0.8162742 0.52437496 0.46615887 -0.31090373 -0.36947677 0.6267251
1.0277466 0.09439012 -0.89151156 0.54744613 0.5410358 -0.681809 -0.4485277 -0.018937275
0.024233168 -0.43579736 -0.87772894 -0.89867204 -0.70897335 -0.042027406 -0.68306684 0.5253934
00000000: 23e4 3cbf a572 51bf 3502 ab3e 3407 8abf
00000010: 3c36 1b3f 75bc 8bbf d8e3 303f f62f 153f
00000020: 3658 31bf 7f0e a0bf 8c3e 4abf c462 ee3e
00000030: 1244 1fbf 8cec 55bf d0a0 22bf 59fa 87bf
00000040: 0120 21bf 29f7 79bf f310 45bf fd1d 55bf
00000050: 95c8 75bf 5296 47bf 6f1d 323f da6f 65bf
00000060: 6b84 0d3f 11ce 28bf 69d6 5bbf ea99 52bf
00000070: 9e03 5abf 086d ce3e e5e0 0cbf 994e 7ebf
00000080: 1e3e 0e3d c908 f53e bdef 71bf a644 36bf
00000090: 510a 54bf f2f2 29bf 5dc0 0ebf 12a0 5fbf
000000a0: bf78 6fbf c723 24bf 9439 59bf 0287 44bf
000000b0: f84c 1f3f 5809 cebe f883 023f b782 b13e
000000c0: 9151 44bf 0d75 0f3f f981 85bf c115 c7be
000000d0: 7659 743d 9d8c 003f f530 313f 2c55 20bf
000000e0: 16c1 f23c 0f87 523f 01cf 533f 7f67 5cbf
000000f0: d577 3d3c f63f 6fbf 1b99 62bf 6984 263d
00000100: 0f40 213f 4b28 633f a91a 75bf 6ea8 3e3f
00000110: b189 273f 1ac6 24bf 2b07 013d b424 76bf
00000120: 3237 3b3c e331 d63c f94b aebe 8258 4e3f
00000130: f348 173f efbd 83bd 71c7 0e3f 7104 37bf
00000140: 68c0 f53e 6a74 473f 5acb 68bf f205 113f
00000150: cff5 0f3f a620 e33e 02df d53d ea25 65bf
00000160: 71c6 c7be fa54 c43e 8abf 3abf ba00 0d3f
00000170: 5fdc 14bd 6a50 643d ed7f 31bf 9112 d0be
00000180: 4f64 51bf 1663 093f 5884 003f d7b3 0d3f
00000190: 2bfe 18bf 18d4 bf3c 0127 55bf 8247 35bf
000001a0: 9def de3e 46dc 06bf 1595 47bf 1163 073f
000001b0: bc41 003f c040 2b3f 31a0 0d3f 5a45 36bf
000001c0: d070 8cbf b38f 343d 8356 22bf 6cc4 38bf
000001d0: 3047 aa3e 6873 5c3f 2b61 153f 2f40 fcbe
000001e0: ffd1 093d 4807 55bf 3b39 12bf ea45 863d
000001f0: c3aa f33c 0d00 f9be 8fbe 8dbe fcc5 0f3f
00000200: 2e56 59bf 7477 4dbf d92b 04bf 1e7c 75bf
00000210: e77b 01bf 3e9a 28bf 0e73 263f 0bac f83e
00000220: 24ac 3d3f 6a5d 233f 7fa6 6bbf 7879 6bbc
00000230: 0876 24bd c1a3 023f 9e00 62bf d721 45bf
00000240: fd17 fb3e d0f2 053e 0601 0b3f 1e68 28bf
00000250: c364 f63e ce00 41bf 8da4 2fbf 431a 073f
00000260: 0587 003f 279e 273f 7aaa 67bf 846c 49bf
00000270: fe51 2fbd e828 20bf b60e 46bf 46ba 69bf
00000280: e576 67bf 91ff fdbe e68c eb3c d577 0a3f
00000290: 2930 0ebf 2706 2bbf 4055 ed3e e6ac 36bf
000002a0: b680 35bf 2692 3d3f 0c75 4d3d 6941 153f
000002b0: 50f7 69bf c5e7 673f 7d48 273f 398d 84bf
000002c0: 48ac 5d3f c2a8 633f bae6 a7bf 5518 53bd
000002d0: 5b55 8bbf b8bf 32bf 1717 383f 9939 6bbd
000002e0: a5c9 a23c 0c4a 53bf 2ae4 0c3f 60a4 fbbe
000002f0: 74ca 9dbf 8498 08bf 176f ae3c 1495 063f
00000300: 4825 2dbf b80b 223d cafa 2abf ccd2 0d3c
00000310: 305a 48bf 5dcd 253f 7677 acbc 8ba6 63bf
00000320: cc5d 173f 29ee 85bf b88e 96bc 9d34 083f
00000330: 8a52 0fbf 308d 59bf 5ae1 473f e6d9 84bf
00000340: 0542 c8be 43ef 1a3f 11c0 d7be a2df 4b3f
00000350: e2a8 40bf d9af 2abf 13b3 fc3c 8805 6fbd
00000360: 22c8 5fbf c22c d0bb 49d9 68bf 1206 48bf
00000370: 7eb9 3a3d ea6f 843d a13a 42bf e142 c5be
00000380: 49bd 3bbf 8207 52bf 3d3b b2be 9ab0 38bf
00000390: cc7f 36bf e916 bebc 4e72 b9be 044d 1c3f
000003a0: f15c 26bf 29e2 1d3f 59f7 50bf 703d 063f
000003b0: 60ac ee3e c62e 9fbe 0f2c bdbe 0e71 203f
000003c0: 338d 833f 9b4f c13d 1a3a 64bf 6e25 0c3f
000003d0: 5281 0a3f 098b 2ebf 6ca5 e5be 5822 9bbc
000003e0: a384 c63c d520 dfbe d8b2 60bf 5f0f 66bf
000003f0: 477f 35bf ee24 2cbd 78dd 2ebf 2f80 063f
